data.pth (torch, 5802 bytes, 6 tensors)

l1.weight f4 [8, 60]
00000000: 2ce5 fcbc 301f 6f3d 1647 e5bd 1220 33bd
00000010: d402 dabd ff04 3abc 2e4d ed3d 0a13 883d
00000020: 7e75 78bd 4e86 753d f449 c63d f9f3 d03d
00000030: 3fa7 d7bd b27e ec3d ac4c 70bd 0452 f53d
00000040: 00fc 10b9 96a4 72bd f0f8 5ebd 0f3e 7fbc
00000050: 58a4 c13c dcf1 36bd 7d1a 9c3d 90a1 90bb
00000060: 14be b83d 9e8e 42bd 3c5d 4dbd e883 e03c
00000070: e294 4bbd a83d 2dbc f8a4 c33c 4086 433d
00000080: 1600 6fbd 50cc a33c 40c2 5d3c aeb9 e4bd
00000090: a23a 86bd f4ce e2bc 3031 883d 28ce 5cbd
000000a0: 07b4 d9bd a053 5e3d e0d8 643c c278 8a3d
000000b0: d655 93bd 6eb6 eb3d e376 e73b de54 d8bd
000000c0: a543 e8bd 70a9 90bb 2e48 ee3d 6888 1bbc
000000d0: 6dd0 ab3d ac74 6a3d 60c4 e1bd 3647 65bd
000000e0: c015 513d ce40 803d dc61 7cbd 4acb 68bd
000000f0: 32ec cfbe 7dc9 463f ced2 ae3d 9246 00bf
00000100: 0a0f d7bd f628 66be c04e ec3e 2264 8bbe
00000110: 87cd 4839 a02f 0ebe b026 35be e61b 773f
00000120: 6913 9ebe b1a9 a1be 033f f6be 9aaf e73d
00000130: c8b0 92be 788f 323f 9794 78be 3a7a 78be
00000140: edd3 b4be c4d8 0b3f 18a1 803f 967f 12be
00000150: c08a 613e dea7 433f a107 5d3e 08bd 493f
00000160: 2b4f 553f 75f5 a3be aa65 0b3f 6c44 1dbe
00000170: 9ae8 21be 81b8 febd 4ef1 a8be d69b f23e
00000180: f6ef a73e 8253 033c f527 363f 3887 073f
00000190: a197 02bf c0ec 30be 7ce7 db3d bc19 04bf
000001a0: 620e 38be 6fb3 69be 9059 c5bd 3fcb 62be
000001b0: 7858 3bbe 1c8b 303f 5e9b 0b3f 9b07 cdbe
000001c0: ceea 273f e7c8 aa3e 2fdc f03e a983 0d3f
000001d0: a125 f73e 370a 37be 36f5 a53d 7193 bdbe
000001e0: 85f2 2fbf c864 99be f669 9cbe 9ce1 2f3f
000001f0: f537 233f b277 433f 9f19 183f ec54 263f
00000200: 83a1 093f 82f8 473f f20b 133f a888 1f3f
00000210: bb4d 063f eaef 1d3f 2ef2 e13e d212 203f
00000220: 8f8a fc3e 61bb f83e 919d b4bd 86f4 073f
00000230: bb2a 70be e5d0 e93e be7a 203f 632b d03e
00000240: e09e 2cbd 0910 463f 80a1 e9be 3194 423f
00000250: 3633 433f 252b 07bf 6448 443f 9198 a83e
00000260: d6a6 acbd 182c 8dbe 3839 c83e 4aaf 033f
00000270: 59d0 30bf 411e 9fbe 6edb cd3e 04d5 bb3d
00000280: e8f3 0d3f 2abe 8bbe 3590 3fbe 0f6d 0a3f
00000290: c239 ce3e 4afd a7be c146 1d3f 7a6d 77be
000002a0: ad8c d1be 161e 3b3e 2cd9 0ebf 63dc c13e
000002b0: a65f 47bf 360d 03be edb6 d93e 192a 36bf
000002c0: df17 09bf 0a1e 983e 3554 d73e 198f 71be
000002d0: 81fd 223f a397 083f 5be0 793f 7b51 b3bb
000002e0: 9e26 a13e fa01 ed3e 6afc 8abe 15dd 083f
000002f0: 13b5 323e 95ac ce3e 726e 1e3d 4b44 19bf
00000300: 35f8 a7be 137f 693d f1e4 a23e 2677 d33e
00000310: b822 0e3e 54c0 8ebe 5ed3 1d3e a452 3f3f
00000320: be76 253f 3d62 97be a048 19bf fe6f 66be
00000330: ff4b 70bd 697e 07bf dd87 393f 0b65 0abf
00000340: 608a 0ebf d741 493f cd76 10bf 7a7a 3c3f
00000350: 84b3 5a3f 9f12 3e3f d668 fb3d 25eb 73be
00000360: de6b d4be ef7f 8f3c bf61 b6be 52a3 833e
00000370: 03ac e13d fde3 0e3f 728f c8bd e12d b53e
00000380: a874 79be b570 1f3f 3726 4a3f da99 503f
00000390: 7dda 0a3f 278b c6be 7faf e9be c4af ab3c
000003a0: 0ef6 8e3f 45aa 0e3f 7bbf b1bd fc15 e2be
000003b0: 8f61 d9be f0f6 fa3e 6fc3 143e 6921 303f
000003c0: c6fc b4be 13b3 173f 5ffd fa3e f18a f4be
000003d0: 6326 653f 373f ea3d 26b8 e63e cba7 2d3e
000003e0: f7e3 353e 5b32 813d fd80 a1be 2103 48bf
000003f0: d537 17be fdd7 c7be 1df9 0ebf 3208 333f
-0.030870996 0.058379352 -0.11195199 -0.043731757 -0.10645071 -0.01135373 0.115869865 0.066442564
-0.060658924 0.059942536 0.09682074 0.10202784 -0.105299465 0.11547603 -0.05866687 0.11978534
-0.00013826787 -0.059238993 -0.054436624 -0.015578761 0.023637936 -0.04466425 0.0762224 -0.004413791
0.090206295 -0.04749929 -0.050137743 0.027406648 -0.049702533 -0.010573782 0.023882374 0.047735453
-0.05834969 0.019994885 0.013535082 -0.11168228 -0.06554152 -0.027686574 0.06650007 -0.053907543
-0.106300406 0.05427897 0.013967723 0.06761314 -0.07194106 0.11509405 0.007063733 -0.10563062
-0.11341027 -0.00441473 0.11634861 -0.009492971 0.083893634 0.057240173 -0.11023784 -0.055976115
0.051046133 0.062623605 -0.061616763 -0.056834497 -0.4060989 0.77651197 0.085363016 -0.5010768
-0.10500915 -0.22476563 0.4615383 -0.27224833 0.00019150051 -0.13885355 -0.1769054 0.96526945
-0.30874184 -0.31574777 -0.4809495 0.1131279 -0.28650498 0.69750166 -0.24275433 -0.24265376
-0.35317937 0.54627633 1.0049162 -0.14306483 0.22025585 0.7642802 0.21584941 0.78804064
0.83323926 -0.32023206 0.54452 -0.15358132 -0.15811387 -0.12437535 -0.329966 0.47384518
0.32800263 0.008015515 0.7115472 0.529407 -0.5101262 -0.17277813 0.107375115 -0.5160177
-0.17974237 -0.22822355 -0.09636223 -0.22147845 -0.18295467 0.68962264 0.54533947 -0.40044865
0.6559266 0.333564 0.47042987 0.5527902 0.48270896 -0.1787499 0.08103411 -0.3702655
-0.6872943 -0.29959702 -0.30549592 0.6870363 0.6375726 0.76354516 0.59414095 0.6497333
0.5376207 0.7811357 0.574401 0.62317896 0.5246236 0.61694205 0.4413008 0.6252872
0.49324462 0.4858046 -0.08819116 0.5310749 -0.234538 0.45667186 0.6268729 0.406581
-0.042143703 0.7736822 -0.45631027 0.7600737 0.76250017 -0.5280021 0.7667296 0.329289
-0.08430259 -0.27572703 0.39106154 0.51439345 -0.69067913 -0.3107777 0.40206474 0.09171489
0.55450296 -0.2729352 -0.18707354 0.5407266 0.4027844 -0.32810432 0.61436087 -0.24162856
-0.4092764 0.18273196 -0.5580013 0.37863454 -0.7788032 -0.12798008 0.42522374 -0.71157986
-0.5355205 0.29710418 0.42056432 -0.23589744 0.63668066 0.5335638 0.97607964 -0.0054723597
0.31474775 0.4629057 -0.27145702 0.53462344 0.17451887 0.40366045 0.038679548 -0.5986983
-0.32806554 0.057005953 0.31815293 0.4130184 0.13880432 -0.2788111 0.15412661 0.74735475
0.6463431 -0.29567137 -0.5987644 -0.22503659 -0.058666226 -0.5292726 0.72472936 -0.5406043
-0.55679893 0.7861609 -0.56431276 0.73624384 0.8543017 0.74247164 0.12275855 -0.2382017
-0.41488546 0.017517058 -0.3562145 0.2571054 0.11019137 0.5581663 -0.09792985 0.35386565
-0.24360907 0.6228135 0.7896456 0.8148476 0.54239637 -0.3877804 -0.45641705 0.020957835
1.116884 0.5572856 -0.086791 -0.44157398 -0.42457244 0.49016523 0.14527677 0.6880098
-0.353491 0.5925762 0.49021432 -0.47762254 0.895117 0.114378385 0.4506237 0.16958539
0.17762743 0.06308433 -0.31543723 -0.78129774 -0.14767392 -0.39031973 -0.55848867 0.6993438

l1.bias f4 [8]
00000000: dcb7 e7bd 631c 963f 74e1 6f3f 9147 193f
00000010: 24bb 4c3f 4030 203f b44c 16be 49c5 4f3f
-0.11314365 1.1727413 0.9370339 0.59874827 0.79973054 0.62573624 -0.14677697 0.8116041

l2.weight f4 [8, 8]
00000000: 9512 51be 5ad2 b63f 9eb4 143f 633d 61bf
00000010: c02c 903f aaa8 1fbf 1dff 35be 417f b23e
00000020: 79a6 08be 1170 e93e cc1d f63f a0bb 9fbe
00000030: 4033 98be 7f1f be3b c09f b3be 7114 af3f
00000040: 124a 293e 2117 67bf 9d24 eebc b5b7 dd3f
00000050: cdd4 de3e 9805 ce3f 0861 19bd 9fdf 443f
00000060: 50fe 093e 7d05 ca3f d0ef 88be ad8f cbbe
00000070: eddc d23e eed8 12be 913f a0be d446 0f3e
00000080: b155 933e 3be1 91be 4ce1 953e 203f b63d
00000090: a6be a0bf 42b7 a03f bb19 8cbc 48a5 aa3f
000000a0: 1873 013d 3848 073d 6df3 40be 51b7 bbbe
000000b0: 04a1 073d ac5c 553e 2761 8b3e cb1c 86be
000000c0: 9c2a 3fbe 69e8 b43c 287f a93e 2e85 99bf
000000d0: f85c dd3e ba73 5a3e 93f4 9b3e 7e11 4c3f
000000e0: 615f 863d a823 0f3f ae7e 2abe db73 0e3f
000000f0: 5720 f33f 972b b2bd badb 993e 4144 2bbf
-0.20417245 1.4282944 0.580881 -0.87984294 1.1263657 -0.62366736 -0.17773099 0.34862712
-0.13344754 0.45593312 1.9227843 -0.31197834 -0.297266 0.0058020945 -0.35082817 1.3678113
0.16532162 -0.90269667 -0.029070193 1.7321688 0.4352173 1.6095457 -0.03744605 0.7690372
0.13475919 1.5782925 -0.26745462 -0.39758053 0.41184178 -0.14340565 -0.31298497 0.13991863
0.28776315 -0.2849215 0.2927345 0.08898759 -1.2558181 1.2555926 -0.017102113 1.333169
0.031603903 0.033027858 -0.1884286 -0.36663297 0.03311254 0.20836133 0.2722256 -0.26193842
-0.18668598 0.022083478 0.33104825 -1.1993768 0.43234992 0.21333209 0.30460033 0.7971419
0.06561161 0.5591378 -0.16649887 0.5564553 1.8994244 -0.0869972 0.3005045 -0.6690102

l2.bias f4 [8]
00000000: 8bb4 3b3f decb 223f 2025 c63e 89e0 323f
00000010: 2ed9 eb3e b4aa 7ebe 3bf5 293f 61aa 0d3f
0.7332236 0.63592327 0.387002 0.69873863 0.46064132 -0.24869806 0.66389817 0.553381

l3.weight f4 [10, 8]
00000000: d7bc a03d 7268 ec3e abf7 863d e2ea a7bf
00000010: 9d8f 9abf 79e3 913c cb5d 72bf 33f5 273e
00000020: 82c7 74bf a523 80be 46b5 993e 1b79 5abf
00000030: 16c6 8ebd ec9b 233e c592 10bf 2c86 273c
00000040: fee4 6dbf 0c2f cbbe 6c7c ca3e 46c6 e8be
00000050: cc57 113f d27a bdbe a7e8 a9bf c1e7 e8bf
00000060: 2324 26bf 258a d3bf 102e 113f 407a 89be
00000070: 8043 883e 05be a0be b714 febe 8a90 2abf
00000080: 49f8 a8bf e022 8fbf 1cb8 d33e c935 00bf
00000090: de6b 8ebf 01a1 673e 4d15 b6be 989e d63e
000000a0: 6a8f 8d3e db00 c63e 0792 93bf a12b be3e
000000b0: 8fb6 043f 8a83 2cbe 5d78 853e 67b2 8ebf
000000c0: 4896 093f ad8b 2a3f 1867 c1bf 5e86 a53e
000000d0: 0b7f b8bf 5196 cc3d 555b d03d 12b9 223e
000000e0: 153d 173f 3caf 86bf 5c36 bebf 5b2c 913e
000000f0: fbbc 37bf 0bd0 5ebd acbe e63e b61e 573f
00000100: 4ed1 22bf 9856 073f 021b 84be 02cc 81bf
00000110: 0200 103f 3a65 11be 3823 8e3e 30b2 3fbf
00000120: 16b4 4b3d 44f0 dcbe 20cc cfbd e772 163f
00000130: 41f6 83bf 1571 3e3e bbad 51bf a90e 1a3f
0.07848518 0.46173435 0.06590208 -1.3118556 -1.2075077 0.017808663 -0.94674367 0.1640213
-0.95616925 -0.25027195 0.30021113 -0.8534104 -0.06971376 0.15977448 -0.5647395 0.01022486
-0.9292754 -0.3968433 0.3954805 -0.4546377 0.5677459 -0.37007767 -1.3274125 -1.8195726
-0.6489889 -1.6526533 0.5671091 -0.26851082 0.26613998 -0.31394973 -0.4962518 -0.666268
-1.3200771 -1.1182518 0.41351402 -0.5008207 -1.1126668 0.22620012 -0.35563126 0.41917872
0.2764848 0.38672528 -1.1528939 0.3714266 0.5184106 -0.16847053 0.26068392 -1.1148194
0.53744936 0.6661938 -1.5109587 0.32329077 -1.441377 0.09989608 0.1017367 0.15890911
0.5907758 -1.0522227 -1.4860339 0.28354153 -0.71772736 -0.054397624 0.45067346 0.84031236
-0.63600624 0.52866507 -0.25801855 -1.0140383 0.5625001 -0.14198771 0.27761245 -0.7488127
0.04973229 -0.43152058 -0.10146356 0.5876908 -1.0309526 0.18597825 -0.81905717 0.6017862

l3.bias f4 [10]
00000000: 2956 b6be ba58 48be 17f6 c43d d893 983b
00000010: 584d 6ebe aef9 de3e 9754 8a3e d164 79be
00000020: 14d9 1cbe 236a 003e
-0.3561261 -0.19565096 0.096172504 0.004656296 -0.23271692 0.43549865 0.27017662 -0.24354865
-0.15317184 0.12540488
